053-inference-tflite-in-java-on-android/app/src/main/assets/my_model.tflite (tflite, 1320 bytes, 3 tensors)

StatefulPartitionedCall/sequential/dense/BiasAdd/ReadVariableOp f4 [10]
0	0xbf69d2b4	-0.9133713
1	0x3dc646bf	0.096814625
2	0x3f968d73	1.1761917
3	0xbf69748c	-0.9119346
4	0x3f1dccc7	0.6164059
5	0x3f4b3cb3	0.79389495
6	0x3fd36c70	1.6517467
7	0xbfddd56c	-1.7330756
8	0x3dedfc6f	0.116204135
9	0xbf36e724	-0.7144644

sequential/dense/MatMul;StatefulPartitionedCall/sequential/dense/MatMul f4 [10, 1]
0	0xc08182de	-4.047225
1	0xc0435e8f	-3.0526464
2	0xbf2b90ee	-0.6701802
3	0xc07ecbec	-3.9811964
4	0x4080ef96	4.0292463
5	0x40854c10	4.165535
6	0xc0090adc	-2.1412878
7	0x3f903ec9	1.126916
8	0xc03ff204	-2.9991465
9	0xc072277f	-3.7836607

sequential/dense_1/MatMul;StatefulPartitionedCall/sequential/dense_1/MatMul f4 [1, 10]
0	0xc080c336	-4.0238295
1	0xc034a6f4	-2.82269
2	0xbecf29e2	-0.40461642
3	0xc080dde3	-4.027086
4	0x4066411f	3.5977247
5	0x4073ecec	3.8113356
6	0xc012758a	-2.288424
7	0x3f6f02b9	0.9336353
8	0xc031ff51	-2.7812083
9	0xc06e586b	-3.7241466
